graph_complexity_model/policy.pth (torch, 94898 bytes, 11 tensors)

mlp_extractor.policy_net.0.weight f4 [64, 100]
000000 cb 0e b7 bb 2a 88 a4 3d 67 4b a1 bc 70 d4 d9 bd
       -0.0055864803 0.08033784 -0.019689275 -0.10636222
000010 ec a9 dd bd 36 1e 4f be 28 11 05 3e ea 4b ef 3d
       -0.10823426 -0.20226368 0.12994826 0.11684401
000020 18 a2 1c 3e 92 9c c7 bc 27 50 34 3e d6 47 d5 3c
       0.15296209 -0.02436665 0.176087 0.02603523
000030 79 7e 3e 3e 6a 36 08 3e dc a5 dc 3c ac 53 ea bd
       0.18602933 0.13302007 0.026934557 -0.114417404
000040 48 c2 69 bd 28 af e2 3c a9 23 5c 3e 4a 4f c5 3d
       -0.057070047 0.027671412 0.21497978 0.09634264
000050 0e 05 07 be 33 ee 02 3d 34 97 a1 bc 11 0d cf bd
       -0.13185522 0.031965446 -0.01972542 -0.10109914
000060 9b d1 78 be 6f a2 e0 3d 91 fc 41 bc 22 4c 03 3e
       -0.24298708 0.10968482 -0.011840002 0.12822011
000070 1a da 27 3e 27 7c 66 bc b2 af 02 3e 12 ef ba be
       0.16391793 -0.014067686 0.12762335 -0.3651052
000080 aa d4 a3 3d 29 c9 d8 be e5 a9 94 3d c6 7a dd bd
       0.07999547 -0.42340973 0.07258967 -0.10814433
000090 6f 47 16 bc 28 a0 11 3d 3f e4 ad 3d 4d 36 33 bd
       -0.0091723045 0.035553128 0.084908 -0.043752957
0000a0 e6 c4 0c be fa be 2a bd 2f 33 21 3e 19 a3 e2 3b
       -0.13746986 -0.041686036 0.15742181 0.0069164154
0000b0 02 75 a3 be 45 5b 12 be 12 d9 a3 bd 10 e5 19 3e
       -0.31925207 -0.14292629 -0.08000387 0.15028787
0000c0 04 9c aa 3d 6f 8e 0f 3b 57 1e 2a be 85 a9 85 3c
       0.08330539 0.0021904965 -0.16613136 0.016316185
0000d0 3c de bf 3d 51 dc 0d be 3d 26 71 bd 29 5f 15 be
       0.0936856 -0.13853575 -0.058874357 -0.14587082
0000e0 7c c7 33 3e 89 5c f8 bd 71 eb 0c 3d b7 7b 3b 3e
       0.17556566 -0.12127025 0.034404222 0.18308912
0000f0 31 f7 45 3c ea 8c 34 bd ac 18 a5 be c6 20 59 3e
       0.012082861 -0.0440797 -0.32245386 0.21203908
000100 44 eb 82 be 16 68 8f 3e 25 5c 92 bc ae cf bb bb
       -0.25570118 0.280091 -0.017866204 -0.0057315445
000110 81 f8 4a 3e 1c b1 ad bd 3b 87 54 bd 1a 05 de bd
       0.19821359 -0.084810466 -0.05188678 -0.10840817
000120 ed 7b be bd 3e cd 03 3e 4d d6 ba 3d c8 b3 ab 3d
       -0.09300981 0.12871262 0.09122906 0.083839
000130 0b d5 33 be 26 53 10 3e 33 54 09 be 6a 8f f7 3d
       -0.17561738 0.14094219 -0.13411026 0.12087901
000140 a0 5c 2a 3b 86 de 12 bb a0 cf 04 be e7 28 ca 3d
       0.002599515 -0.0022410466 -0.12969828 0.09871083
000150 76 ce f3 bc 70 ac 5c 3e 95 9a 60 bd 00 5f 8b be
       -0.029761534 0.21550155 -0.05483492 -0.27220917
000160 af 4e 69 be 69 a1 40 3c 6e a0 88 3c 71 b0 33 bd
       -0.22783922 0.011757233 0.016678061 -0.04386944
000170 e9 38 2b bd 6f 4c ff bd 9d b0 ac 3e ac 6d 15 3e
       -0.04180232 -0.124657504 0.33728495 0.14592618
000180 e8 e4 a7 3b 28 f7 85 bd 8e 12 a1 3b b4 21 1b bd
       0.0051237233 -0.06541282 0.004915542 -0.03787394
000190 5c 81 53 3e ff 21 90 bd b9 36 65 bd 2e 6d b5 bd
       0.20654815 -0.07037734 -0.05596039 -0.08858715
0001a0 4d af aa 3c 85 22 6f be 1a 75 69 bd 93 31 5c be
       0.020835543 -0.23353012 -0.056996442 -0.21503286
0001b0 42 23 1f bd 54 0e 1e be ce ef 38 bd 4a 44 3e be
       -0.038851984 -0.15435153 -0.04515057 -0.18580738
0001c0 d1 fc fe bc 35 e2 f5 ba 28 30 89 3c e6 25 06 be
       -0.031126412 -0.0018759432 0.016746596 -0.13100395
0001d0 fd 71 b1 bd d4 7b dd bc b3 01 cf 3d 9e ba e5 bc
       -0.0866432 -0.027036585 0.10107746 -0.028043088
0001e0 da 4b db 3d cc c0 cd be 72 1b f5 3a e2 65 8c be
       0.10707827 -0.40186155 0.0018700196 -0.2742148
0001f0 17 ac 30 bd 4c 22 c1 3d 85 91 69 3e dd 7f 4a 3d
       -0.043132868 0.0943037 0.22809418 0.049438346
000200 66 03 a5 be ae 04 16 be 69 e7 25 3e c3 1d 98 3e
       -0.32229155 -0.14650223 0.16201557 0.29710206
000210 e6 a1 05 3e ef ba db bd 18 7c d3 3d 18 38 4b 3e
       0.1305004 -0.10729014 0.103264034 0.19845617
000220 08 32 84 bd 0c 04 a4 3c 29 ee 7d bc 12 60 28 be
       -0.06454855 0.020021461 -0.015498676 -0.16442898
000230 84 bf 67 3d d1 19 c4 3d db ec 1b 3d 66 7f 2e bd
       0.056579128 0.095752366 0.03806768 -0.042601965
000240 9c ca 5f be 1e 95 ef 3d eb 5d 87 be 44 26 5e 39
       -0.21854633 0.11698364 -0.2643884 0.00021185825
000250 e2 f8 12 be b9 9a 3c 3e 4a 7b 2c 3d 82 4a d4 bd
       -0.14352754 0.18418397 0.042109765 -0.10365774
000260 14 b1 b2 3d 78 5a 57 bd 72 fb 90 bd 24 78 c7 3d
       0.08725181 -0.052576512 -0.070792094 0.09739712
000270 47 25 b7 3d 64 f3 50 3e e8 8d 23 be b9 25 c4 3c
       0.08942657 0.20405346 -0.15972102 0.023943769
000280 46 89 10 bd bf 24 33 be 25 bd 1e be d9 c6 38 3e
       -0.035287164 -0.17494486 -0.1550184 0.18044604
000290 38 a8 c6 bd 02 30 1d be dd 6c 33 3e ef 3f dc bc
       -0.09700054 -0.15350345 0.17521997 -0.026885955
0002a0 87 00 c3 bd 5c 2a 0d 3d 81 71 d8 bc b0 a3 06 3e
       -0.09521585 0.034464225 -0.02642131 0.1314838
0002b0 17 a5 42 3d 9b 88 c4 bd 75 76 39 3e ae b0 87 3e
       0.047520723 -0.09596368 0.18111594 0.26501983
0002c0 da fc e3 bd 08 d2 61 be 7f d8 46 3e 90 37 fa bd
       -0.11132212 -0.22052777 0.19418524 -0.12217629
0002d0 23 b2 2f bc 5f dc c9 3d 56 37 32 3e e3 62 96 bd
       -0.010723623 0.098564856 0.17403921 -0.0734308
0002e0 98 d8 1c be 6e 76 21 3e 72 c4 8f bd de 9d 3c 3c
       -0.15316999 0.15767834 -0.07019891 0.011512248
0002f0 36 ff 47 3e 05 c1 2d 3e d0 db 0c 3c 12 6d 7c 3d
       0.19530949 0.16968162 0.008597329 0.061627455
000300 f6 c4 29 3d b9 d6 32 3d b1 67 7a 3e 3b 6c 8c be
       0.041447602 0.043661807 0.24453618 -0.27426323
000310 3a 92 20 3e 59 03 34 3e 2c 5c 5f 3d 40 e6 53 3c
       0.15680781 0.17579402 0.05453126 0.012933314
000320 1c 0b 5b 3e 84 b9 d7 3d 89 4e b5 bd 5e d0 38 bd
       0.21390957 0.10533431 -0.0885287 -0.04512059
000330 4c 8d 6b bd a5 51 0f 3d 5c d6 12 bd ac 20 d9 3c
       -0.057507798 0.03498997 -0.03584896 0.026504837
000340 31 68 48 bd c0 ce 1e be 80 60 7d bd 5d 80 56 3d
       -0.04892749 -0.15508556 -0.061859608 0.05236851
000350 e1 1d 7c bd d2 ae e7 3d d7 41 2a 3d 35 b4 af 3c
       -0.061551932 0.11312641 0.041566696 0.021448234
000360 2c 37 80 3e 1b 81 63 be 1e 7d 77 3d da 0a 80 3e
       0.25042093 -0.22217219 0.060422055 0.2500828
000370 31 83 77 3d 89 94 f1 bd ca 2e 1a 3e 4f d0 91 3d
       0.06042785 -0.11795909 0.15056911 0.0711981
000380 7c a7 01 3e 87 88 52 bc a5 d2 36 3d 50 22 0b 3e
       0.12661546 -0.0128499335 0.04463448 0.13587308
000390 30 8c 54 3e c8 70 f5 3c 7a 3c 5d 3d 2a b6 c3 3c
       0.20756602 0.029961005 0.054012753 0.023890574
0003a0 1e 49 4c 3d b2 14 fe 3d bc 3c 74 3d fe a2 03 be
       0.049874417 0.12406291 0.059628233 -0.12855145
0003b0 a5 0b 13 3e dc c2 75 bb 27 91 13 3c a9 5f 5e 3e
       0.14359911 -0.0037500178 0.009006775 0.21716179
0003c0 27 c7 11 3e 0d e1 2f bd 06 09 21 3e 22 84 17 bd
       0.14236127 -0.042939235 0.15726098 -0.036991246
0003d0 95 3f 7a be b3 19 24 bc 64 14 02 3e f3 3e f6 3e
       -0.24438317 -0.010015893 0.12703091 0.480949
0003e0 86 09 13 bc 20 90 a4 3e a8 a0 1f be ee 2a b8 3e
       -0.0089744385 0.3214121 -0.15588629 0.35970253
0003f0 47 73 36 bc 8c 21 27 3d f8 90 f0 bd 90 56 2f be
       -0.011135883 0.040803477 -0.117464006 -0.17122865

mlp_extractor.policy_net.0.bias f4 [64]
000000 f2 e4 b6 ba 68 3b 9d bb 6d ad 19 bc 76 69 10 ba
       -0.0013953729 -0.0047983415 -0.009379727 -0.0005508879
000010 fd 98 8a 3b 80 00 41 3c 06 10 b6 3c 92 2d eb 3b
       0.0042296634 0.011779904 0.022224437 0.0071770633
000020 41 bc 35 bb 07 1b 38 bc 3e 59 db 3b 63 47 9b bb
       -0.0027730616 -0.011236913 0.006693988 -0.0047387346
000030 d7 bf ce 38 6b 07 30 3c 14 4b 28 3c ae 8e e0 bb
       9.8585784e-05 0.010743956 0.010271806 -0.0068529462
000040 8e 3f 90 3b d6 ae 22 3a 68 86 29 bb a5 ad 58 3c
       0.0044021076 0.0006205862 -0.0025867466 0.013224994
000050 cd 67 0d 3c c7 d1 8c 3c c1 33 56 3b 2a 27 d0 3b
       0.008630705 0.017189873 0.0032684656 0.006352325
000060 ef ad 41 3c fb 0a 20 3c 39 4a 08 bb 6c 7b e3 3a
       0.011821254 0.009768243 -0.0020796193 0.0017355508
000070 cb 3b 7e bc 10 ba cf bb 11 d9 7f ba 70 12 1f 3a
       -0.015517185 -0.006339319 -0.00097598234 0.0006068116
000080 05 bb 74 3a 17 d0 49 3b 56 4d 20 bb f7 ae 82 3c
       0.00093357294 0.0030794197 -0.0024460158 0.01595257
000090 00 28 e2 3c 99 6d 9b 3b 2a 55 53 3b 02 ad cd 3a
       0.027606964 0.0047432897 0.0032246807 0.0015691819
0000a0 e5 44 30 3c 12 1e 89 b9 1f a2 e1 bb 43 d1 1f 3c
       0.010758613 -0.0002615308 -0.0068857814 0.009754482
0000b0 e6 55 ef 3b 23 e2 9e 3b 96 e7 98 3b 72 8b d7 bb
       0.007303941 0.004848735 0.004666279 -0.0065779025
0000c0 d1 9f 64 3b 1a d6 7b bc ec cf 40 bc 35 89 86 3c
       0.0034885297 -0.01537087 -0.011768322 0.016422847
0000d0 1f d4 37 3b 17 c7 5e bb 08 f8 fb 3b d1 16 a8 bc
       0.0028050018 -0.0033993179 0.0076894797 -0.020518692
0000e0 3b 88 b0 3b 05 82 86 3b 69 14 8e 3b a5 4d 09 bc
       0.0053873337 0.004104855 0.004335929 -0.008380328
0000f0 2a 79 35 bb a8 46 cd 3b 5e e7 0e bb 8d fc 03 3c
       -0.0027690628 0.0062645264 -0.0021805386 0.008055818

mlp_extractor.policy_net.2.weight f4 [64, 64]
000000 00 7f dc bd 9e 2c 9e 3d cb c9 24 be 76 96 89 3e
       -0.10766411 0.07723354 -0.16092603 0.26872605
000010 10 a4 ae bd f2 64 66 be 56 62 2f be 5d f2 43 3d
       -0.08527386 -0.22499445 -0.17127356 0.047838558
000020 98 48 86 3e 7f 4a 1d 3d bf 14 85 3e 89 35 82 be
       0.2622726 0.038401123 0.2599239 -0.2543147
000030 bb 69 b1 3e 6f 53 f1 bd 09 07 1a 3e 77 8d 4d be
       0.34650978 -0.11783492 0.15041746 -0.20073496
000040 ad 53 a1 3d 8e 5b 8d 3d 54 73 e1 3d 4a 33 04 3e
       0.07877288 0.06902228 0.11008325 0.1291019
000050 18 4b 88 be ec 72 1f be ac 34 27 3d d4 15 90 bd
       -0.26619792 -0.15571183 0.040821716 -0.070354134
000060 38 ab 2d 3e 74 cb a4 be a6 2a 02 bd d1 65 a5 3d
       0.16959846 -0.32186472 -0.031778954 0.080760606
000070 93 b8 00 3d 35 2f 62 3e fa d7 27 be 84 16 a1 3d
       0.031426024 0.2208832 -0.16390982 0.07865623
000080 a3 9a 08 3e f2 8e 92 bd 6b d5 1d 3e 82 fa d9 ba
       0.13340239 -0.07156171 0.15413444 -0.0016630443
000090 d3 3f ef bc 6b 8d 9a bd e1 76 80 be 9a 95 d0 3d
       -0.029205238 -0.075465046 -0.25090697 0.10184784
0000a0 bd 8e c3 3e 4a 05 e5 3c f7 ff 82 3d 7f b7 bd 3d
       0.38194838 0.027956624 0.06396478 0.09263515
0000b0 38 49 18 be 6f e9 3f 3e d3 78 0b 3d 9a 17 86 bc
       -0.1487168 0.18741392 0.034050774 -0.016368676
0000c0 6f 55 20 3e 4d e3 7a 3e 10 d0 7b bd 3d 72 50 be
       0.1565759 0.24500771 -0.06147772 -0.20356078
0000d0 94 1a 8b bd da 2a 2b be 92 a4 d8 bd 72 d1 05 3f
       -0.06792179 -0.16715565 -0.10578264 0.52272713
0000e0 5d 24 fd bd 9a 11 08 bc c3 17 b0 be 4c 7c ae bd
       -0.12360451 -0.008304978 -0.3439313 -0.085198015
0000f0 76 ff 2a 3e 19 48 0c 3e 86 97 27 be 3a c7 73 3e
       0.16699013 0.13699378 -0.16366395 0.23806468
000100 8d b9 3c 3e 76 38 e9 3e 93 be ed 3d ed da 28 be
       0.18430157 0.4555089 0.11608615 -0.16489764
000110 49 d6 92 bd 66 90 8b 3e 3d 37 a8 bd 0a d0 a1 bd
       -0.07169778 0.27258605 -0.08213661 -0.079010084
000120 8e 31 17 3e 64 22 97 3e 72 b3 7c 3d 39 89 2a 3e
       0.14764997 0.29518425 0.06169457 0.16653909
000130 26 8b 16 bd eb 7e 8d be 36 8e 24 3e d1 88 35 3e
       -0.036753796 -0.27635893 0.16069874 0.17727973
000140 df 83 bc be 09 2c 2b 3e a1 5e 99 be 57 a6 82 bc
       -0.3681936 0.16716017 -0.2995501 -0.015948458
000150 95 77 3f 3e c7 f3 f9 bc 9d 7c d1 3c b6 74 15 be
       0.1869796 -0.03051175 0.025572116 -0.14595303
000160 4d 1b 2a 3e 1b a6 cf 3d 53 89 a3 3e 96 7a 8e 3e
       0.16611977 0.10139104 0.31940708 0.278279
000170 10 c7 92 3e 54 0c 9f 3d 34 cc 2f be 8d 07 fd bd
       0.28667498 0.07766023 -0.17167741 -0.12354956
000180 a0 4c f7 3d 79 98 9d 3d c0 1b 26 be 61 d5 4e 3e
       0.12075162 0.076950975 -0.16221523 0.20198585
000190 22 42 8b 3c aa 94 52 3e 7f 2c ff 3d 78 84 c9 bc
       0.016999308 0.20564523 0.12459659 -0.024599299
0001a0 03 18 fb bc eb 91 58 3e bb 45 94 3d a9 cd 6a 3e
       -0.030651098 0.21149413 0.072398625 0.22930016
0001b0 29 c0 59 be 07 64 16 3d cb 52 4c bd 05 bd d4 3d
       -0.2126471 0.036716487 -0.049883645 0.10387615
0001c0 fd 8a 9f be 55 20 bb 3e 08 a5 fc bd cf b7 2f 3e
       -0.31160727 0.36548105 -0.12336165 0.17159961
0001d0 e6 6b e1 bd 6c ca 38 bd 9c c8 b2 3d 6d 75 46 3d
       -0.11006908 -0.04511492 0.087296695 0.04845183
0001e0 44 ea 2d be 95 8f ac bd a8 b9 a9 3c 00 9b b1 bd
       -0.16983896 -0.084258236 0.02071841 -0.08672142
0001f0 ff 22 79 3d 49 18 b4 bd b4 19 0f 3d 90 80 67 3e
       0.06082439 -0.087936945 0.03493662 0.22607636
000200 26 4c 14 3e 2d c3 9a 3e dd 05 01 be 57 ff d0 be
       0.14482173 0.30227032 -0.12599893 -0.4081981
000210 a3 7e 79 be b1 45 da 3c aa 3c bc bd 15 24 6d be
       -0.24364714 0.02664456 -0.09191258 -0.23158295
000220 a7 d1 e1 3d b3 af 31 be 8f c9 a9 bd bd fb 58 3e
       0.11026316 -0.1735218 -0.082903974 0.2118978
000230 6d 4f 50 bc 0e d6 06 be 3d 04 14 bd 6a e1 b6 bc
       -0.012714249 -0.13167593 -0.036136854 -0.022324283
000240 02 c8 b4 bd be 7c 89 be 63 a5 17 3e dc 1a 89 3d
       -0.08827211 -0.26852983 0.14809184 0.06694576
000250 94 d8 1f 3e 99 c3 66 be f2 21 d6 bc 8d 8e 14 3c
       0.15609962 -0.22535552 -0.026139233 0.00906719
000260 2d 0a 08 3e 3c be a7 bd 4b cf 4e be b6 c9 6f be
       0.13285132 -0.08190581 -0.20196263 -0.2341679
000270 16 c7 5d 3e f9 b8 cf bd ff 72 60 3e 63 ea 39 be
       0.21657977 -0.101427026 0.21918868 -0.18155818
000280 20 d8 b9 3e 48 71 2f 3d 4b cb 01 bd 5c 0d 50 3d
       0.36297703 0.042832643 -0.031688016 0.05079399
000290 94 46 df 3d 9c 03 6d be ff 08 58 be cb 40 d0 bd
       0.109021336 -0.23145908 -0.21097182 -0.10168608
0002a0 df 93 b1 3e 9e 4e 29 be be 2b 08 be 68 6e 0b bd
       0.3468313 -0.16533896 -0.13297936 -0.03404084
0002b0 38 da 8a 3e e2 e8 f4 bd 13 11 91 be 08 cf 2e bd
       0.27119613 -0.11958481 -0.2833334 -0.04267791
0002c0 ed 4f 39 3d bb 24 9a 3c ba a1 c8 3d b6 af f9 3d
       0.04524224 0.018816343 0.09796472 0.12191717
0002d0 2c 0a f0 3d 89 23 82 be 1f b1 2e bd 70 62 ed bd
       0.1172069 -0.25417736 -0.042649385 -0.11591041
0002e0 64 07 f0 3d d0 0e ce be 23 58 9b bd 16 eb 5a 3d
       0.1172016 -0.40245676 -0.0758517 0.05344685
0002f0 e2 ea d3 3d 02 17 89 3e eb f9 14 be 5f a0 32 be
       0.10347535 0.26775366 -0.14548461 -0.17443989
000300 c3 17 c3 bd ae e5 3b 3e ad e3 81 bd 32 c0 16 3c
       -0.095260166 0.18349335 -0.06342254 0.009201096
000310 ab e2 83 3e 1a 24 78 3e 4e 52 07 bd b0 be 37 be
       0.2575887 0.24232522 -0.033037476 -0.17943835
000320 61 87 f1 bd c5 c8 fe bd e3 fe db bb 44 45 b5 bd
       -0.117933996 -0.124406375 -0.0067137345 -0.08851102
000330 ec ee 11 bd ec 0a a3 bd d0 2e 3a 3e 9d b5 03 3f
       -0.035628244 -0.079610676 0.1818192 0.51448995
000340 76 b2 68 3e fe 10 82 3e 89 05 04 be dd ce cd bd
       0.22724327 0.2540359 -0.12892736 -0.10049222
000350 63 24 8b 3e 11 25 11 3e ce cb 7f be ab 8d cc 3d
       0.27176198 0.14174296 -0.24980089 0.099879585
000360 f7 04 42 3e d1 28 1a bf e6 b4 4e 3e 0c c0 90 3d
       0.18947206 -0.6021853 0.20186195 0.0706788
000370 0f a5 ce bd b9 46 8e 3d bd 3c 59 3e 8a bb 11 bd
       -0.10090076 0.06947083 0.21214576 -0.03557924
000380 10 6b 0f be d9 0a 4b be 56 0d 1d be 99 5b 27 3d
       -0.14005685 -0.19828357 -0.15337119 0.04085884
000390 48 44 a3 bc 83 89 ed bd 16 5d 96 be f7 b6 0b 3e
       -0.01993002 -0.11598494 -0.29367894 0.13644014
0003a0 44 72 b4 be a5 d6 ef bd 86 da 22 be 9b 74 bf 3c
       -0.35243428 -0.11710862 -0.15903673 0.023371032
0003b0 3e 06 e0 3d 91 93 cb bc 2a 5a ae 3d f5 1a 8f bd
       0.109386906 -0.024850639 0.08513291 -0.069875635
0003c0 e2 cf 3a 3e f7 b6 d7 bc 26 64 39 3e a9 c1 2e bd
       0.18243363 -0.026332362 0.1810461 -0.042665157
0003d0 7f 07 d3 bd 94 d5 ba bd 60 c3 ed 3d 57 a5 0b 3e
       -0.10304164 -0.09122768 0.116095304 0.13637291
0003e0 36 23 1e 3e 15 a7 20 bd d0 73 76 bd 4d ed 6c be
       0.1544312 -0.03922184 -0.06016904 -0.23137398
0003f0 e2 75 9a 3d 5a 53 47 3e f2 ee e4 3d 34 fa 3d bd
       0.075420156 0.1946539 0.11178388 -0.04638119

mlp_extractor.policy_net.2.bias f4 [64]
000000 6b ba 54 bc ba 44 ec bb 4b c5 c7 39 d9 36 83 3b
       -0.012983899 -0.0072103413 0.00038103233 0.004004341
000010 30 bd 24 3c 4f 31 79 3b 31 2a 97 3b c0 4c 2f ba
       0.010054871 0.0038023775 0.004613184 -0.0006687157
000020 6b ac 15 3c 84 28 39 bc aa c5 12 3c d5 aa 8b ba
       0.009135346 -0.011301164 0.00895826 -0.001065577
000030 29 3c 16 bc 16 0a 05 ba 0d 50 2d 3c 66 a0 55 bc
       -0.009169617 -0.000507505 0.010578168 -0.01303873
000040 54 70 63 3a 17 aa d4 3b e9 87 26 bb 3e af 1a bb
       0.0008676101 0.006490003 -0.0025410599 -0.0023602988
000050 df 27 45 bb cb 51 00 3c ff cd b8 3a 98 3b 63 b9
       -0.003008358 0.007832001 0.0014099478 -0.00021670607
000060 01 ec 1b 3c 3e c7 62 3c 03 64 bf bb ac 57 b2 3b
       0.009516717 0.013841448 -0.0058407797 0.00544258
000070 c7 92 8a bc d4 91 b2 3b 90 89 43 3b 33 c5 73 bc
       -0.016915692 0.005449513 0.0029836632 -0.014878559
000080 13 f6 88 3b 21 b4 8f 3a 6c e7 22 3b 25 33 6f 3b
       0.004179725 0.0010963717 0.0024857176 0.003649899
000090 3f 58 a8 3b 70 bf 16 bb a3 35 88 3c 3e 60 d7 3b
       0.005137473 -0.002300229 0.016627138 0.0065727523
0000a0 79 ac 0e 3c b5 22 77 b7 5c 86 a5 3b 4c d3 1a 3a
       0.008708113 -1.4730428e-05 0.0050514173 0.00059061195
0000b0 75 79 c5 ba 1b 6b c4 3a b8 d5 39 ba c1 d6 0e bc
       -0.0015066104 0.0014985533 -0.00070890365 -0.0087181935
0000c0 da d0 37 ba b6 01 b4 3b 4a d7 b2 ba a4 3b fc 3b
       -0.00070120173 0.005493368 -0.0013644483 0.0076975394
0000d0 63 88 29 3c 35 dd c3 3b f2 e0 19 3b 01 7d 0b 3c
       0.0103474585 0.0059772977 0.0023480025 0.00851369
0000e0 46 95 3a 3b 36 7b 0e 3c 76 63 03 bb 38 ea b9 b7
       0.0028470322 0.008696368 -0.0020048297 -2.2162785e-05
0000f0 7e cf c2 3b 28 cf 6a bb 58 76 0a bc c6 eb 4e bc
       0.005945145 -0.003582904 -0.008451067 -0.012629455

mlp_extractor.value_net.0.weight f4 [64, 100]
000000 57 d4 fb 3c 6d dd 00 3e 0f ff 26 bc 1f 71 23 3e
       0.0307409 0.12584467 -0.010192647 0.15961121
000010 26 e9 e3 3d 25 f9 e4 bd c4 d8 7c 3d 22 2e aa bc
       0.11128454 -0.11180333 0.06173016 -0.020773951
000020 6c d4 18 3e 9f d7 0d be f0 53 5e 3e fd 5a c7 3d
       0.14924783 -0.13851784 0.21711707 0.097341515
000030 29 f7 56 3e 60 b9 13 3e 1d ac 0f 3d 33 69 db bb
       0.20992722 0.14426184 0.03507625 -0.0066958903
000040 ef bb fc bd 30 6b b0 bd e5 cf 28 bc b7 70 ba bc
       -0.12340533 -0.086141944 -0.010303472 -0.022758825
000050 4c bf 91 3d 47 ae 24 be d9 7f 80 bc 51 ff 57 3d
       0.07116565 -0.16082107 -0.015685963 0.052733723
000060 9f 17 1f 3e d6 98 ab bd 81 18 96 3e 89 66 9d 3d
       0.15536354 -0.083787605 0.2931557 0.07685573
000070 b8 cb aa 3d c8 4f 11 3e 9b 7c 0e 3e d9 b2 b4 3d
       0.083396375 0.1419059 0.1391472 0.08823175
000080 29 bb cd bd 6a 6f 10 be b7 4c 34 3e 5d 30 2e bc
       -0.100454636 -0.14105001 0.1760739 -0.010631648
000090 8a 1d c3 3d 1c a6 8e 3d 54 8a ea 3c 7c f3 39 be
       0.095271185 0.069652766 0.028630413 -0.18159288
0000a0 40 eb fe bd 5e 2a 49 bd 46 52 00 3e 00 8e 1b 3d
       -0.12447214 -0.04911267 0.12531385 0.03797722
0000b0 02 4d 47 3d b3 c6 20 be a5 17 f8 3d 98 97 73 bd
       0.048657425 -0.15700798 0.12113885 -0.059470743
0000c0 6e 3d cf 3d 59 fa c3 3c c0 21 2d 3e 0c d6 32 be
       0.10119139 0.023923086 0.16907406 -0.17464465
0000d0 9c 28 1e be 70 b7 60 bd 31 31 38 be 23 05 37 be
       -0.15445179 -0.05486244 -0.17987515 -0.17873053
0000e0 44 a9 58 3d db 81 0e 3e 49 4b f1 3c 67 dc be 3d
       0.0528958 0.13916723 0.029454844 0.09319382
0000f0 12 18 fc 3d 15 44 8b be e0 5a 39 3e 91 c7 11 be
       0.123092785 -0.2720038 0.18101072 -0.14236285
000100 f7 32 36 be 4b 5b 11 3e e8 ea 40 3e 0a cc 43 3e
       -0.17792879 0.14194982 0.1883961 0.19120803
000110 4a e8 86 bc 00 31 6a 3d f4 93 ad bd 06 98 ef 3c
       -0.016468186 0.057175636 -0.084754854 0.029247295
000120 6c a7 88 be de ca a5 3e de f0 9c bd 1f 05 ef bd
       -0.26690233 0.32381338 -0.07663129 -0.11670899
000130 02 04 6c bd 08 3f 9d 3d 48 35 06 3e da e4 be 3c
       -0.05762101 0.07678038 0.13106263 0.023302484
000140 0c cb eb 3d 0e 5a 46 3e 91 c4 c1 3c e1 a6 c4 3d
       0.115133375 0.1937029 0.0236533 0.09602142
000150 08 f2 4e 3e 37 3c 20 3d 70 89 11 be 33 35 b7 3d
       0.20209515 0.039119925 -0.14212584 0.08945694
000160 a6 1a 99 be eb 19 1e 3e ef 19 34 be 56 ea 66 3d
       -0.29903144 0.15439574 -0.17588018 0.056375824
000170 05 1f f2 bd b7 4b 82 3d 44 1d 5a 3e 13 57 f8 3e
       -0.11822323 0.06362098 0.21300226 0.48503932
000180 24 4f 00 be d7 b5 6a bd e1 bc d5 3c 08 fe 6b 3e
       -0.1253019 -0.057302322 0.026091041 0.23046124
000190 9d ba 6f bd 0d 20 30 be bb 2c 3a be 25 87 17 be
       -0.058527578 -0.17199726 -0.18181126 -0.14797647
0001a0 a6 09 66 be 6c fc f1 bc 53 52 aa bd 28 f5 21 3d
       -0.22464618 -0.02953931 -0.08316483 0.03954044
0001b0 ac 06 a2 bd 26 66 4a bd 40 c7 dc bd 6e 27 2e be
       -0.07911429 -0.049413823 -0.107801914 -0.17007229
0001c0 bc 8b 9a 3e 82 12 d2 bd 1a c8 9f 3d a0 24 5e 3e
       0.30184734 -0.10257436 0.07801838 0.21693659
0001d0 48 54 33 be d9 fe 87 bc a0 df 20 3d 5f 99 c7 3d
       -0.1751262 -0.016601013 0.039275765 0.0974605
0001e0 da 8f 59 be 52 ce b5 bc ad 57 10 3d 77 18 dc 3d
       -0.21246281 -0.022193108 0.035239864 0.10746854
0001f0 f1 84 37 be 01 4a 62 bd e8 02 f4 3c 89 e0 1a be
       -0.17921807 -0.055246357 0.029786542 -0.15124716
000200 0d 37 b7 bd 2c f1 f6 3d 77 f7 99 3d 7b 0a f7 bd
       -0.08946047 0.12057719 0.07517903 -0.12062546
000210 b4 60 24 3d 8c 6b 27 bc a2 17 5f bd f0 d5 b9 3c
       0.040131286 -0.010218512 -0.054465897 0.022685021
000220 76 bd 10 3e 7d 05 1a bc e9 00 6c bd a4 0f 85 bd
       0.14134774 -0.009400723 -0.057618055 -0.06497124
000230 a8 84 e6 bc e1 b6 28 be 71 ae e7 bd 78 97 f0 3c
       -0.028139427 -0.16476013 -0.11312569 0.0293691
000240 03 f4 a6 bd e1 ab 5b bd 20 c9 97 bd 45 3f 7b be
       -0.0815201 -0.053630713 -0.074114084 -0.24535854
000250 27 20 2c bd e5 c0 97 be 3a 06 e6 3d 26 a7 25 be
       -0.04202285 -0.29639354 0.112316564 -0.16177043
000260 fb c4 80 bd a5 9a 0e be 43 4f af bd 39 cd 62 bd
       -0.06287571 -0.1392618 -0.0856004 -0.055371497
000270 1f 7c 48 3e 2b 72 d7 3d 74 78 16 be 30 9e ee bc
       0.19578598 0.10519823 -0.14694387 -0.029128164
000280 19 6e bd 3b 9f aa 1f 3e 05 b4 a4 be 31 3a aa be
       0.005780947 0.1559243 -0.32168594 -0.33247522
000290 03 44 35 bd a0 02 5b be b5 5f 99 bd 36 cd 07 3e
       -0.044254314 -0.2138772 -0.07488958 0.13261876
0002a0 fb b4 7f bd fc 04 c5 be 9a bb a0 bd b4 e7 ed bd
       -0.062428456 -0.38480365 -0.07848282 -0.116164595
0002b0 c9 76 72 3c e3 60 bc be c1 55 5c be d8 ee 75 3c
       0.014798828 -0.3679267 -0.21517088 0.015010558
0002c0 e0 41 37 3d 7c c3 77 bd b6 4a 23 be 3e d8 3b 3e
       0.044740558 -0.060489163 -0.15946469 0.18344209
0002d0 97 4f fd 3d 73 a2 80 bd d3 ed ef bd 3c 85 ff 3c
       0.12368696 -0.06280985 -0.11715283 0.03119146
0002e0 51 c3 c6 bc 08 6d a5 3d ba 7d 8a be f6 fc 4b 3c
       -0.024263056 0.08077437 -0.27049047 0.012450447
0002f0 1c 07 08 3e 2e 1b f1 be b1 37 82 3d 74 6a 24 be
       0.13283962 -0.4709105 0.063582785 -0.16056234
000300 27 80 1a be 11 4a 7d 3e 7a 27 b3 bc aa 33 e4 3c
       -0.15087949 0.24735285 -0.02186941 0.027856667
000310 9f 4b 37 be d9 13 84 be 33 48 1b be 8c 7f d5 3c
       -0.17899941 -0.25796393 -0.1516426 0.026061796
000320 15 43 bd 3d 41 d4 1e 3e 15 60 e5 bd dd 1d 90 bd
       0.092413105 0.15510656 -0.11199967 -0.07036946
000330 97 47 26 bd 43 51 bb 3d f0 02 0b bd e3 fd df 3d
       -0.040595617 0.09146359 -0.03393835 0.10937097
000340 be fe 17 be f7 2a c7 3c 75 bc 4f bd 01 38 6e 3e
       -0.1484327 0.02431248 -0.050716836 0.23263551
000350 7a 7b b7 3c 0e c3 b4 be 1d 57 d9 3c 7e c7 30 3e
       0.022397745 -0.35305065 0.026530797 0.172636
000360 c7 a2 a4 3b 73 70 87 3e c9 86 15 3e 08 d5 d7 3d
       0.0050242874 0.2645298 0.14602198 0.10538679
000370 13 52 59 3e 0d 75 02 3e 79 4b f3 bd a0 0f 83 3e
       0.21222715 0.12739964 -0.1187963 0.25597858
000380 8d 11 18 3e e8 ba f8 3c c5 be 83 3e 6e e1 e9 3d
       0.14850445 0.030362561 0.25731483 0.114199504
000390 24 f4 7e 3e c8 58 80 bb df 39 16 3d 5a 40 c3 3d
       0.2489782 -0.0039168335 0.036676284 0.095337585
0003a0 9c 46 08 3d 85 d4 62 3e a1 8b c9 3d a3 5f f7 bc
       0.033270463 0.22151382 0.09841085 -0.03019697
0003b0 dd 17 20 be c2 09 1f 3e de 99 2d 3e 04 3e 12 be
       -0.15634103 0.15531066 0.16953227 -0.1428147
0003c0 a3 36 5a 3d 78 ca 08 bc eb 13 d3 bd 5b 58 21 3e
       0.053274762 -0.008349054 -0.103065334 0.15756361
0003d0 45 cc 61 3d 32 bf 4d 3d 4f d6 15 3d 7c 77 b1 3e
       0.055126447 0.050231166 0.036581334 0.34661472
0003e0 de 31 bc 3d 0d ad ba bd 95 e6 6e 3d 45 65 0e 3e
       0.09189199 -0.09115038 0.05832537 0.13905819
0003f0 8f 31 98 3d fd 12 b7 be 95 cf ba 3e ec 00 99 bd
       0.074313276 -0.35756674 0.36486498 -0.07470879

mlp_extractor.value_net.0.bias f4 [64]
000000 b8 3c 11 3e 16 f6 4a be a6 53 4e 3e 76 0e 09 be
       0.14183319 -0.19820437 0.20149097 -0.13384423
000010 a9 3a 66 be d2 50 ea bd 9d 22 26 3e 01 76 89 3e
       -0.22483315 -0.114411965 0.16224141 0.26847842
000020 09 48 60 be f4 5b 8e be 00 27 25 3e 79 7f 7f be
       -0.21902479 -0.2780453 0.16128159 -0.2495097
000030 de a4 8f 3e e6 90 53 3e 2c 2e 97 3e 77 fa 1d 3e
       0.2805547 0.20660743 0.29527414 0.15427576
000040 79 03 73 3e e2 67 ed 3d 07 aa 14 be a3 5a 6c be
       0.23731793 0.1159208 -0.14517985 -0.2308145
000050 7c 88 00 be 01 2e 27 3e 47 5e 7d 3e 20 0e 82 3e
       -0.12552065 0.16326143 0.24742995 0.25401402
000060 a6 2f 66 be a1 8c 88 3e 76 c7 21 be ae 84 7a 3e
       -0.22479114 0.2666979 -0.15798745 0.24464676
000070 0d 54 d8 3d 0c 62 5c 3e 75 a5 3d 3e 66 05 ff bd
       0.105629064 0.21521777 0.18520148 -0.124522015
000080 3f 71 73 3e 38 20 88 be 06 a7 fc 3d 5c 0f 39 be
       0.23773669 -0.2658708 0.12336545 -0.18072265
000090 43 8e 57 3e 09 78 60 3e b1 b7 6a 3e 90 7a 76 be
       0.21050362 0.2192079 0.22921635 -0.24070191
0000a0 90 b3 04 bd 81 71 83 be 19 ed 11 3e 3c 23 06 be
       -0.032397807 -0.25672534 0.14250602 -0.13099378
0000b0 c0 4e fb 3d d1 60 80 be 07 11 10 be 24 5d 6b 3e
       0.1227088 -0.25073865 -0.14068995 0.22984749
0000c0 39 3d 64 3e 69 39 18 be 06 de 3b 3e 6e 98 29 be
       0.2228898 -0.1486565 0.18346414 -0.16562054
0000d0 84 c7 6a be 03 48 ff bd 6e fd 0d be 42 d7 95 3e
       -0.22927672 -0.12464907 -0.13866207 0.2926579
0000e0 7c 72 59 3e 4c 6a 8f 3e 3b 9f 7e 3e 8d 12 2a 3e
       0.21235079 0.28010786 0.24865429 0.16608639
0000f0 96 2d 52 3e 95 65 3f 3e 60 99 60 be 0a cd 19 3e
       0.20525202 0.18691094 -0.21933508 0.15019622

mlp_extractor.value_net.2.weight f4 [64, 64]
000000 74 3b bf bc 45 43 80 bc 6b 5f 4a 3e 18 d8 68 bd
       -0.02334378 -0.015657077 0.19762962 -0.056846708
000010 9e d1 73 3d 4c aa 65 3e 60 12 1e be 2a 7f 02 be
       0.05952608 0.22428244 -0.15436697 -0.12743822
000020 c0 8d 00 be 86 cb af bd 69 d2 85 be b5 22 55 be
       -0.12554073 -0.08583741 -0.26137093 -0.20814021
000030 a6 dc a0 b9 3a 0d 86 be 19 12 a0 be 24 72 aa be
       -0.00030681974 -0.26181966 -0.31263807 -0.33290207
000040 a3 95 c4 3d 68 26 08 3e 52 2d a3 3c a5 b8 8a 3e
       0.095988534 0.13295901 0.019919071 0.27093998
000050 a5 53 bc 3e 4e c9 87 be c9 ad 40 be 57 60 00 be
       0.36782566 -0.2652077 -0.18816294 -0.1253675
000060 ff a1 00 be 2c d6 af bc e4 01 b1 bc b8 8e 54 be
       -0.12561797 -0.02146443 -0.021607347 -0.20757568
000070 12 1a 5a 3d 57 5d 86 be df 22 c0 bd af 26 68 3d
       0.05324752 -0.26243088 -0.09381651 0.056677517
000080 12 06 6c be 81 3a 7a 3e e8 6f a8 be ea 21 2a be
       -0.2304919 0.2443638 -0.32897878 -0.166145
000090 93 f0 d8 3d bc 95 e6 bd 0a 6e 15 be 12 a7 24 3e
       0.10592761 -0.11259028 -0.14592758 0.16079357
0000a0 bf dc ef bd 65 2d 17 bd 09 49 8d be 74 5a c5 3e
       -0.11712026 -0.036908526 -0.27594784 0.38545573
0000b0 db a5 0d 3e c0 2c 67 3e 03 b2 aa bd 64 f3 ba 3e
       0.138328 0.22575665 -0.08334734 0.36513817
0000c0 22 07 63 3c 68 45 f9 bc 13 70 ab be e2 1d b5 3e
       0.013856681 -0.030428603 -0.33483943 0.3537436
0000d0 d6 12 c6 3c 75 47 81 3d 77 bf 69 3e ba 38 8c 3d
       0.024178904 0.063124575 0.22826944 0.06846757
0000e0 c1 3a a0 bc 34 00 9d bd dd d8 82 3e 64 6e 33 be
       -0.019559266 -0.07666054 0.2555608 -0.1752258
0000f0 5c 87 0e 3e 8e 92 f3 bd 88 38 85 3e ce eb 84 3c
       0.13918823 -0.118931875 0.26019692 0.016225722
000100 15 ae 4c 3e ee 4a b2 3e 17 3e 92 be d2 05 90 3e
       0.19988282 0.34822792 -0.28562996 0.2812944
000110 02 32 5d bd 93 07 0b 3e 43 ed 7d 3d 6c 50 3a 3e
       -0.05400277 0.13577108 0.06199385 0.18194741
000120 07 d3 8c 3e ac c5 22 3e a6 be a0 3d 42 47 11 bd
       0.2750475 0.15895718 0.07848863 -0.035468347
000130 f4 93 ca be e2 d9 12 be 75 a2 3b be 47 b4 80 be
       -0.39566004 -0.14340928 -0.18323691 -0.2513754
000140 87 a9 38 be ba 08 67 3e 2b 47 18 3d 08 6e 11 be
       -0.1803342 0.22561923 0.037177246 -0.1420213
000150 b3 4e 0f 3e d3 d7 71 be 47 c4 33 bc af a7 cf bb
       0.13994865 -0.23617487 -0.010972089 -0.006337128
000160 25 da ab 3d 72 2f 8c 3d 3e 52 96 bc 3e 0b 14 3c
       0.08391217 0.06844987 -0.018349763 0.0090358835
000170 67 30 19 3e 75 85 b0 bd b3 87 38 be 1f 00 b0 3d
       0.1495987 -0.08619205 -0.18020515 0.08593773
000180 ec ee a4 be c8 a4 9e 3e 63 6c 03 be 27 74 9f 3d
       -0.32213533 0.30985093 -0.12834315 0.07785826
000190 2c 8a 65 3e 07 e3 b6 be 19 82 5e be d5 62 fc bd
       0.2241599 -0.35720083 -0.21729316 -0.12323538
0001a0 3f 1c c4 bd b9 cf 5c 3e 5a 5d 8d 3c b5 b6 dc 3e
       -0.095757 0.21563615 0.017256428 0.43108144
0001b0 b4 a4 ab bd b7 6b 4a be fe b7 c2 bb 67 d6 79 be
       -0.08381024 -0.19767652 -0.0059423437 -0.24398194
0001c0 66 9e 58 be fa 69 87 3e e0 2e 36 be 7d 1e 5f 3e
       -0.21154174 0.2644804 -0.17791319 0.21788974
0001d0 c0 16 a9 3e 58 3c c1 3d 9a 78 9c be 8e 17 45 3d
       0.3302517 0.09435338 -0.30560762 0.048118167
0001e0 02 7f 80 be 73 06 b9 bc 87 6f 15 3c e6 53 11 3e
       -0.250969 -0.022586083 0.0091208285 0.14192161
0001f0 fa 4a c4 be b1 79 c0 3c 3d c3 33 bb 17 e3 15 be
       -0.38338453 0.023495527 -0.0027429604 -0.14637409
000200 56 80 ea 3b 02 fc ed be 9f 99 05 3e ba d7 b3 bd
       0.007156412 -0.4648133 0.13046883 -0.08781381
000210 f6 ac 97 be 5a 4e 21 be 59 37 b4 3d 3f ca c2 3d
       -0.29624146 -0.15752545 0.08799619 0.09511232
000220 b9 58 33 3e 2e 2a 3c 3e 2d 28 2c 3e 9f 2d 51 3b
       0.17514314 0.18375465 0.16812201 0.0031918061
000230 0c fb af 3e f4 92 6a 3e 5c 28 87 bd e6 23 6d 3e
       0.3437122 0.2290762 -0.06599495 0.23158225
000240 f4 bd e0 3d e5 36 69 bd d2 b8 62 be d8 b6 b5 3d
       0.10973731 -0.056937117 -0.22140816 0.08872765
000250 82 34 f9 bd 3a 8b 97 be 6e e4 cc 3d bb e7 f5 3e
       -0.12168218 -0.2959841 0.10004507 0.4802836
000260 4f 3d 9c bd e4 35 ca 3d 9b 26 74 bd 9f 95 69 3c
       -0.07628881 0.0987356 -0.05960713 0.014256864
000270 bd 1e 85 3e 81 13 9d bd cf d7 77 3e 74 fb 21 bd
       0.26000014 -0.07669736 0.24203418 -0.039546445
000280 ea 76 6e be 39 af b4 bd ab 7e b5 3d 33 f7 48 bd
       -0.2328755 -0.088224836 0.088620506 -0.049063873
000290 f8 1a 57 be e5 80 96 bd 76 2c cb bd 0a 88 e6 be
       -0.21006382 -0.073488034 -0.099205896 -0.45025665
0002a0 cc a4 6c 3e ec 55 b7 3d 49 03 46 3d a5 76 d0 bd
       0.2310974 0.08951935 0.048342977 -0.1017888
0002b0 93 dd 71 3e 07 d3 b3 bc 82 4d 89 be ab 79 4d 3e
       0.2361968 -0.021951212 -0.26816946 0.20065944
0002c0 51 aa 5b 3e ea 1b f7 bd 91 ea 6b be 40 c8 08 be
       0.2145169 -0.12065871 -0.23038699 -0.1335764
0002d0 70 d8 5e be b5 df e2 bb 72 bd 1f be 2e ba 2c 3e
       -0.21762252 -0.0069236406 -0.15599611 0.16867897
0002e0 f4 0c 73 3d 0d 28 c0 3a 8f d5 04 be 72 b7 22 bd
       0.059338525 0.0014660374 -0.12972091 -0.03972573
0002f0 a0 75 42 be 68 72 ee bd 66 43 8b bd 7d e2 90 3e
       -0.18990183 -0.11642915 -0.067999646 0.28297797
000300 6d 9b 6a 3d d5 08 8b be 82 2d 0b bd 1f 69 0b be
       0.05727713 -0.27155176 -0.033978947 -0.1361432
000310 8f b2 01 be cb 95 39 3d 28 18 31 3e c0 a8 ee 3d
       -0.12665771 0.04530887 0.17294371 0.1165328
000320 b6 dc 61 be ef d7 c7 3e 32 b2 59 3e 71 e6 04 3d
       -0.22056851 0.39031932 0.21259382 0.03244633
000330 b2 71 cb 3e 35 c3 29 bd e8 a5 0d 3a 92 20 4f 3e
       0.3973518 -0.04144593 0.0005403445 0.20227268
000340 54 f1 5f 3d 74 9e 4c bd d6 4c ba 3d e9 e7 64 bd
       0.054673508 -0.0499558 0.090966865 -0.05588523
000350 51 48 06 bd 53 ff 4f 3e df be 8e 3e 2d 4e 25 3e
       -0.03278381 0.20312242 0.27879998 0.16143103
000360 f0 32 be 3d 1d 27 34 3e 7c 6a 59 bd d5 70 e5 3e
       0.09287059 0.17593046 -0.053080067 0.44812647
000370 73 6a 8d bd a7 c2 2e 3e 62 03 36 3e 08 29 b6 bd
       -0.06905069 0.17066441 0.17774728 -0.08894545
000380 c0 f0 97 3e 6e 2d 19 3e b7 c7 75 be 03 c8 8b be
       0.29675865 0.14958736 -0.24001966 -0.27301034
000390 a0 55 c1 3e 58 1c 54 bd db 00 7e be eb 25 26 bd
       0.3776064 -0.051784843 -0.24805014 -0.040563505
0003a0 50 29 3c be 0a cd aa bc fb 80 f2 bd 09 02 62 be
       -0.18375134 -0.020849723 -0.11841007 -0.22071089
0003b0 ad e1 fe 3d 6e c9 c3 bd 58 d3 a5 be 79 8d 97 3d
       0.12445388 -0.09559904 -0.32387805 0.07400031
0003c0 f0 e5 e7 bd 29 d7 b3 bc da 8c 8d 3e 3f 0b 44 3e
       -0.11323154 -0.021953182 0.27646524 0.19144915
0003d0 82 f8 75 be 58 fa bc bd a8 d9 54 3d 7b 3a 2f be
       -0.2402058 -0.09227437 0.051965386 -0.17112152
0003e0 c0 9c 64 3e b6 28 91 3e 82 c1 9b 3e 56 74 83 3d
       0.2232542 0.28351372 0.30421072 0.06418674
0003f0 70 02 56 3c fc 58 c6 3e d2 f9 15 be c0 71 23 3e
       0.013062105 0.38739765 -0.1464608 0.15961361

mlp_extractor.value_net.2.bias f4 [64]
000000 22 3a 7e bd 12 0e a1 bd a2 4d ba 3d 34 da c2 3d
       -0.06206716 -0.07864012 0.090968385 0.09514275
000010 2b d1 1c 3e 50 16 a4 3d d9 2b 95 3d 46 5b de bd
       0.15314166 0.08012068 0.07283754 -0.10857253
000020 4c 0b 8d 3d bb 05 e3 3d ad 2d 8c 3d c8 4b 99 bd
       0.0688692 0.110850774 0.068446495 -0.07485157
000030 33 a0 04 3e 11 1f 91 3d 43 c2 b6 3d 61 e2 a0 bd
       0.12951736 0.070860036 0.08923771 -0.07855678
000040 9f 8a f1 3d 04 a5 90 3d 1c 6c ed 3d 92 a3 83 3d
       0.11794018 0.07062724 0.11592886 0.06427683
000050 75 13 8c 3d ad d9 2e be e7 a4 e7 bd 92 a0 9b bd
       0.06839649 -0.17075224 -0.113107495 -0.07598986
000060 c7 ed fc bd 29 76 5d bd e1 10 0b be 6b 98 a6 3d
       -0.1235004 -0.054067764 -0.13580658 0.0813454
000070 ef 9e cd bd 69 ee 17 be d4 75 86 bd ac 40 ad 3d
       -0.1004008 -0.1483704 -0.06565443 0.08459601
000080 ae 21 ab 3d 32 c8 d5 3d 5b c3 b9 3d f8 c5 85 3d
       0.08356033 0.10438575 0.09070464 0.065319
000090 50 72 19 be b8 a3 03 be bc d6 cf bd c6 d8 df bd
       -0.14985013 -0.12855422 -0.10148379 -0.10930018
0000a0 6f 6f ed bd 9b 4e ae 3d 6c a4 e3 3d aa e8 f9 bd
       -0.1159352 0.085110866 0.11115345 -0.1220258
0000b0 0b aa 8d 3d 43 07 96 3d 7d 12 bf 3d d7 e9 7c bd
       0.06917199 0.07325604 0.09329698 -0.061746445
0000c0 0e 7f c9 bd 70 49 96 3d 0d d2 e3 3d 53 15 99 bd
       -0.09838687 0.07338226 0.111240484 -0.074747704
0000d0 9c 67 ec bd e1 b3 bd bd 17 97 c2 bd 33 f0 83 3d
       -0.115431994 -0.09262825 -0.09501474 0.06442299
0000e0 5e 5f fe bd f5 5b e2 bd 57 51 6a 3d f8 66 a4 3d
       -0.124205336 -0.11052696 0.057206478 0.08027452
0000f0 e4 32 db bd 64 60 1b be 12 3b 88 bd b2 76 94 3d
       -0.10703066 -0.15173489 -0.06651892 0.07249202

action_net.weight f4 [20, 64]
000000 d7 98 57 3c a6 a3 48 bd bc d9 97 3c 06 0c b1 bb
       0.013158998 -0.048984192 0.018536441 -0.0054030446
000010 cd 13 22 3d df 12 3d bc 80 8f 92 bb 6d cd 99 bc
       0.039569665 -0.011540144 -0.004472673 -0.018774712
000020 9c 55 75 3c 4f 79 83 bc 0e 98 ed 3b aa 04 e0 bb
       0.014974024 -0.016049055 0.0072507923 -0.0068364935
000030 03 c4 93 bc e6 f1 91 bc 92 df d1 3a e6 2a aa bc
       -0.018037802 -0.017815541 0.0016012064 -0.020772409
000040 83 69 59 bc 91 9a 44 bb fc 6b 98 3c c3 db d5 bb
       -0.013269785 -0.0029999355 0.018606178 -0.006526442
000050 69 72 5a bc 49 07 35 bc f1 00 ad 3a fb d5 b0 bb
       -0.013332942 -0.0110491 0.0013199133 -0.005396602
000060 87 a3 6d bb 2b 3d db bc f4 d0 7a bc 2a b3 f0 bc
       -0.00362608 -0.026762566 -0.015308607 -0.029382307
000070 d7 09 b2 3c 96 f9 aa bc 03 8b 34 bd d8 7c e7 bc
       0.021733208 -0.020870965 -0.044077884 -0.028257772
000080 47 3b 53 3c b8 04 0d bb 1e 72 14 3c a0 48 9b 3c
       0.012892551 -0.0021517705 0.009060411 0.018955529
000090 92 18 74 bc 05 f7 54 bb a7 f6 26 3c 83 89 b5 bb
       -0.014898436 -0.0032495868 0.010190642 -0.0055400743
0000a0 71 72 ba 3a 77 ea 46 3c d1 ca d2 3b b4 d2 16 3d
       0.001422478 0.012140862 0.006432869 0.036822036
0000b0 b0 b5 49 3c 84 f7 fa 3c 42 85 08 ba bc a4 94 3c
       0.012311384 0.030635603 -0.0005207845 0.018144958
0000c0 21 58 c0 bb c7 04 df bb da a7 17 bc 04 c8 26 bb
       -0.005869881 -0.0068059894 -0.0092563275 -0.0025448808
0000d0 87 bd 00 3c 4e 28 b0 bc f0 a1 b0 bc e9 ae a7 3a
       0.007857687 -0.021503594 -0.021561593 0.0012793216
0000e0 bc 0a 57 3c d5 ba 94 3c c5 ed 4f 3d b7 27 1d bd
       0.013125118 0.018155495 0.050763864 -0.038367953
0000f0 42 20 6a 3b 66 bd 89 bc d7 ff a5 bc 66 ac 18 3d
       0.0035724794 -0.016813945 -0.020263596 0.037273787
000100 d8 ab 90 3c ea ee 5d bc 24 c7 35 ba 47 6c 1e bc
       0.017660066 -0.013545731 -0.00069342763 -0.00966937
000110 43 2f e7 39 e1 3e d9 bc 63 fa 8e bb 71 9a e6 3c
       0.00044094966 -0.02651924 -0.0043633445 0.028149815
000120 71 29 5a bc 7c 04 71 3b 9b bf 11 bb 9a 39 14 3c
       -0.013315544 0.0036776355 -0.002223945 0.009046936
000130 54 6a 5d 3c 7e eb f9 3b 05 60 57 bd 6a ac b2 3b
       0.01351412 0.00762695 -0.052581806 0.0054526823
000140 7c 3a 80 3c 4a 41 e9 ba 08 2d df bc d9 db 00 3c
       0.015652888 -0.0017795947 -0.027243152 0.007864916
000150 59 3e 6e 3c e3 15 f1 bc b6 98 17 bd e7 38 3d 3c
       0.014541232 -0.029429382 -0.03701087 0.011549211
000160 00 43 04 3d 41 d8 88 3b d1 19 20 bc d7 28 70 bc
       0.03229046 0.00417617 -0.00977178 -0.0146581745
000170 b8 2b a3 3c f3 64 61 bc b2 be c8 3b cd ec bd 3c
       0.019918308 -0.013756978 0.0061262483 0.023184204
000180 a8 fe 07 bc 9c 27 54 bc 40 f0 50 bd a2 65 49 3c
       -0.008300461 -0.012948897 -0.05101037 0.012292298
000190 9e 14 88 3c 5e 1b 9e 3c 00 46 91 bc a9 8b ba bc
       0.016611394 0.019300159 -0.017733574 -0.022771673
0001a0 94 9b 0d 3d b2 aa 79 bc 96 d6 62 bc 9b fe ab bc
       0.0345722 -0.015238451 -0.013845107 -0.020995429
0001b0 37 f5 a1 bc 26 3b dc bc bb 45 7f bc ce f6 1a 3c
       -0.019770248 -0.026883673 -0.01558059 0.009458257
0001c0 92 94 16 3c 86 56 fb 3b c9 bb f6 3b 6c 35 b0 bc
       0.009190695 0.0076702265 0.00752971 -0.021509849
0001d0 53 3a 81 3c e8 89 1e bc 4c 16 16 ba 08 c5 4d bc
       0.015774881 -0.009676434 -0.00057253684 -0.012559183
0001e0 3d 71 1c 3c 0a 32 29 bc 01 69 81 bc 32 0c d0 bb
       0.0095484825 -0.010326872 -0.01579714 -0.00634911
0001f0 e3 c8 9e bc 4a e7 c7 37 da c7 87 3c 9b e8 ce bc
       -0.0193829 2.3830351e-05 0.016574789 -0.0252574
000200 57 47 33 3d 43 e0 f6 3c 5e eb f4 b9 d0 de f8 bb
       0.043769207 0.030136233 -0.0004671467 -0.0075949207
000210 d8 12 4c bc 47 52 57 3c 56 7c 7a bb 8f d4 6a bc
       -0.012455665 0.013142175 -0.0038221083 -0.0143329045
000220 57 47 2a 3c 8c 39 4b bc 9d 48 64 3b 6e 4f 13 3b
       0.010392985 -0.012403857 0.003483332 0.0022477764
000230 64 e1 cc b9 48 90 9b 3c 60 6b a4 bc eb d9 e1 3c
       -0.0003907784 0.018989697 -0.020070732 0.027569732
000240 6c b5 45 bc c4 0a 84 bc a7 e8 df ba e9 59 8d bc
       -0.01206718 -0.016118415 -0.0017082886 -0.017254787
000250 0d b6 9d bb 20 13 90 bc 72 79 25 3c f3 c4 1f bb
       -0.004812962 -0.017587245 0.010099756 -0.0024378865
000260 2e 33 7a bc 95 30 d5 bb 75 15 7c bc 19 de fd bc
       -0.015270991 -0.0065060356 -0.015385975 -0.030989693
000270 6a 3f 01 bd ee 56 d7 bc 3f 68 c8 3c bd 55 4b bb
       -0.031554617 -0.026286568 0.02446377 -0.0031026446
000280 79 5f 8f 3b 14 c8 fc 3c b3 cd 0c bb 5c 83 74 3c
       0.004375395 0.030857123 -0.002148491 0.014923897
000290 63 5e 66 3b 79 06 04 bc ab b6 b9 ba 4f 14 a6 3c
       0.0035151474 -0.008058184 -0.0014168819 0.020273356
0002a0 e1 ca 00 3d fd f5 b3 ba 7b c2 e4 b9 3d 26 c0 ba
       0.03144348 -0.0013729926 -0.00043632448 -0.0014659833
0002b0 ee bb 38 3c 42 36 ac bb 31 1c 2c 3b 6c f6 2a bd
       0.011275275 -0.0052554915 0.002626192 -0.041738912
0002c0 9e 96 11 bc ae 23 10 bb 23 a1 21 3c e9 95 4f bc
       -0.008886008 -0.0021993923 0.009865078 -0.012670019
0002d0 b5 ac eb 3c f8 80 88 bc bf 9a 26 bd 16 1d a2 3a
       0.028768877 -0.01666306 -0.04067492 0.0012368287
0002e0 37 4c cf 3c 92 dc 17 3c 6e ec 05 bc f5 da d7 bc
       0.025304897 0.009268897 -0.008174045 -0.026349524
0002f0 41 f3 ff ba b3 a2 94 bc 66 2f 27 ba dc 94 4b 3c
       -0.0019527451 -0.018143987 -0.00063776074 0.012425628
000300 86 75 0b bc 28 3c 25 bc bc 4d 94 bc de dd d1 bc
       -0.0085119065 -0.010085143 -0.018103473 -0.02561849
000310 c6 3c d1 3b b3 92 c7 3b 02 34 c8 bb fd 1a d4 3c
       0.0063854186 0.006090486 -0.0061097154 0.025891775
000320 ca b9 92 3b 18 b3 5b 3c 3e 0c 09 bc 40 bc 8b 3c
       0.004477714 0.0134093985 -0.008364735 0.017057538
000330 75 84 af 3c ac 77 cf bc d9 50 f5 3c e8 40 c2 3a
       0.021425465 -0.025325619 0.029945778 0.0014820369
000340 d4 81 49 3c b1 ea b6 3c 0d f4 96 bc 8f 60 a6 3c
       0.01229902 0.022328706 -0.01842692 0.020309715
000350 4a 42 b1 3c 20 37 a5 3b 3b 2c d0 bb 54 6a 94 3c
       0.021638054 0.005041972 -0.006352929 0.018117107
000360 59 ab 1d 3c ad c6 8b 3c a5 c9 44 3b 77 ce c7 3c
       0.009623372 0.01706251 0.0030027416 0.024390442
000370 ce 5f 60 bc e9 91 8f 3c 9b f7 46 3b 3b b3 a8 bc
       -0.013694717 0.01752563 0.0030359987 -0.020593276
000380 b6 12 b7 bc 84 dc 11 bc 5a 93 44 3c 23 19 71 3c
       -0.02234779 -0.008902673 0.011998022 0.014715466
000390 9a 28 9e 3c 05 61 5e 3b 05 3f 57 3b df 34 e1 bc
       0.01930647 0.003393234 0.003284396 -0.027491031
0003a0 ff b7 d2 bb e9 79 06 bd 6a 29 1f bb 60 27 9c 3c
       -0.0064306254 -0.032831106 -0.002428616 0.019061744
0003b0 c7 40 94 bc 0c 6e c6 bc ef f5 a4 bc 6a a3 15 bc
       -0.018097294 -0.024222396 -0.020136802 -0.009133199
0003c0 cc e6 8b 3c 6c 49 9a 3c 9f 95 d0 3c d1 17 31 bd
       0.017077826 0.018833838 0.02546197 -0.043235604
0003d0 ab 5a 07 bd 31 b6 2c bc 28 6d 90 bc 0e a0 78 bb
       -0.033045452 -0.010541485 -0.017630175 -0.0037937197
0003e0 78 f5 d3 3a ac 61 95 bc 41 11 62 3d b4 63 99 bc
       0.0016171178 -0.01823505 0.055192236 -0.0187243
0003f0 88 51 fd bb 36 b7 b4 3c 11 c9 6f bb 5e f2 e1 bc
       -0.0077306665 0.022060018 -0.003658835 -0.02758139

action_net.bias f4 [20]
000000 22 2c 1b 3b f0 89 e2 3b ab 67 51 bc 5d 73 e4 3c
       0.0023677428 0.006913416 -0.012781064 0.02788704
000010 8d 5a ac bb af e7 34 3c 63 4e ab bc 16 78 5d 3c
       -0.005259818 0.011041566 -0.020911401 0.0135174
000020 6a 4b b1 bc f9 61 33 3b 4f 91 24 bd 80 0e 2c 3c
       -0.021642406 0.0027371629 -0.04017764 0.010501504
000030 d3 57 4d bc ee c6 3b bb 65 55 6c 3c 08 f7 a2 3b
       -0.012533146 -0.0028652507 0.0144246565 0.004973296
000040 86 53 0f 3c 60 54 b4 bb 6f 8e c1 3a 2c 38 b0 3c
       0.008747941 -0.0055032223 0.001476718 0.02151116

value_net.weight f4 [1, 64]
000000 70 79 3c bf db 7b 2b bf 59 32 18 3f 09 db 0d 3f
       -0.736228 -0.66985863 0.59451824 0.55412346
000010 51 df f7 3e 0c 81 07 3f a8 0a 19 3f bb 4c 03 bf
       0.48412564 0.52931285 0.59781885 -0.51288956
000020 4e 97 13 3f 1f ec 0c 3f 10 20 22 3f dd 44 43 bf
       0.5765275 0.5504779 0.63330173 -0.7627695
000030 14 d4 03 3f 52 67 1f 3f 2d ac 0d 3f 25 30 19 bf
       0.5149548 0.6226703 0.55340844 -0.5983909
000040 56 fd 05 3f 90 27 23 3f cc 48 06 3f 86 bd 27 3f
       0.52339685 0.6373224 0.5245483 0.65523565
000050 40 c0 1e 3f ee 6f f2 be 20 47 09 bf 9f a3 2e bf
       0.620121 -0.4735102 -0.53624153 -0.68218416
000060 a9 65 02 bf be fa 4f bf fb 0a 02 bf a7 cf 2a 3f
       -0.5093637 -0.8124198 -0.50798005 0.667231
000070 66 da 06 bf 0a 98 fd be c4 9c 2b bf f0 37 10 3f
       -0.52677 -0.4953006 -0.6703608 0.56335354
000080 3e e7 0f 3f ed ee 13 3f f3 09 20 3f a1 46 18 3f
       0.5621222 0.57786447 0.6251518 0.5948277
000090 6c f6 fa be c8 8e 01 bf 42 74 06 bf d8 2f 07 bf
       -0.4901613 -0.5060849 -0.52521145 -0.5280738
0000a0 42 8b 00 bf 86 5a 0f 3f 03 00 06 3f 59 ae 01 bf
       -0.5021249 0.559975 0.5234377 -0.5065666
0000b0 2e 45 1a 3f a2 70 32 3f ff 65 1f 3f 3c ca 1e bf
       0.6026181 0.69703114 0.6226501 -0.62027335
0000c0 a9 0f 0b bf 7b cf 1d 3f ef a5 01 3f ec bd 14 bf
       -0.5432077 0.61644715 0.5064382 -0.581023
0000d0 05 a9 04 bf 76 9e 1d bf 47 a1 0c bf a1 43 30 3f
       -0.51820403 -0.6156992 -0.5493359 0.68853194
0000e0 01 07 04 bf a3 bd 0d bf 44 46 3d 3f 9c 8a 25 3f
       -0.5157319 -0.5536749 0.7393534 0.64664626
0000f0 9b 68 02 bf 07 e4 fb be 7c 87 2a bf fa 8d 23 3f
       -0.50940865 -0.4919741 -0.6661298 0.63888514
